…
    "section": "Keras: Step 2 – Model definition",
    "text": "Keras: Step 2 – Model definition\n  \n\n\n\n\n\nmodel &lt;- keras_model_sequential(input_shape = c(784)) \nmodel %&gt;% \n     layer_dense(units = 256, activation = 'relu') %&gt;% \n     layer_dropout(rate = 0.4) %&gt;% \n     layer_dense(units = 128, activation = 'relu') %&gt;%\n     layer_dropout(rate = 0.3) %&gt;%\n     layer_dense(units = 10, activation = 'softmax')\n     \nsummary(model)\n&gt;# Model: \"sequential\"\n&gt;# │ Layer (type)          │ Output Shape     │ Param # │\n&gt;# ├-----------------------┼------------------┼---------┤\n&gt;# │ dense_11 (Dense)      │ (None, 256)      │ 200,960 │\n&gt;# │ dropout_3 (Dropout)   │ (None, 256)      │       0 │\n&gt;# │ dense_10 (Dense)      │ (None, 128)      │  32,896 │\n&gt;# │ dropout_2 (Dropout)   │ (None, 128)      │       0 │\n&gt;# │ dense_9 (Dense)       │ (None, 10)       │   1,290 │\n&gt;# └-----------------------┴------------------┴---------┘\n&gt;#  Total params: 235,146 (918.54 KB)\n&gt;#  Trainable params: 235,146 (918.54 KB)\n&gt;#  Non-trainable params: 0 (0.00 B)",
    "crumbs": [
      "Slides",
      "Deep Learning in R"
    ]
  },
  {
    "objectID": "slides/Topic7.html#multi-class-vs-multi-label-classification",
    "href": "slides/Topic7.html#multi-class-vs-multi-label-classification",
…
